model_cnn.pth (torch, 435171 bytes, 8 tensors)

conv1.weight f4 [6, 3, 5, 5]
0	0x3d195834	0.037437633
1	0x3ce38206	0.027771961
2	0x3c8d823d	0.017274017
3	0xbd2bad68	-0.04191342
4	0xbdcfc568	-0.10145074
5	0xbbe7db98	-0.007075738
6	0x3d74cf49	0.059767995
7	0x3d68071b	0.0566474
8	0xbcbda70c	-0.023150943
9	0x3daf751b	0.08567258
10	0x3d9d4e76	0.07680981
11	0x3c865f48	0.016402856
12	0x3e3245c1	0.17409422
13	0x3dd951d4	0.106113106
14	0x3de53d18	0.11193293
15	0x3e0811c7	0.13288032
16	0x3e303a1b	0.17209665
17	0x3e25eb87	0.16203128
18	0x3b660c12	0.003510241
19	0x3e0c977e	0.13729665
20	0x3d95fbda	0.073234275
21	0x3df2d3ce	0.11856805
22	0x3d8444ec	0.06458458
23	0x3db1d088	0.08682352
24	0x3d5112ce	0.051043324
25	0x3da053e8	0.07828504
26	0x3db1a852	0.08674683
27	0x3d845cec	0.06463036
28	0xbde9042f	-0.11377751
29	0xbd750e16	-0.059827887
30	0xbd6d8ecb	-0.057997506
31	0x3d8de91f	0.0692923
32	0xbcdb401f	-0.026763974
33	0xbd92abcb	-0.07161673
34	0xbdca74b0	-0.098855376
35	0xbe42de3b	-0.19030087
36	0xbddf9790	-0.1091758
37	0xbe40cb2c	-0.18827504
38	0xbe0e4c66	-0.13896331
39	0xbe6a5dfb	-0.22887413
40	0xbe0a7422	-0.13520864
41	0xbdd427f1	-0.10359181
42	0xbe45ee98	-0.19329298
43	0xbd8eb941	-0.06968928
44	0xbe12de8c	-0.14342707
45	0xbe2704ab	-0.16310374
46	0xbe6f2e21	-0.2335744
47	0xbdb39f04	-0.08770564
48	0xbd26d3b9	-0.04072926
49	0xbdb5e686	-0.088818595
50	0x3d07be99	0.033140752
51	0x3e080e6d	0.13286753
52	0x3d22098a	0.03955988
53	0x3df981fa	0.12182994
54	0xbd87eb97	-0.06636732
55	0x3e5da601	0.21645357
56	0x3dc1fce3	0.094720624
57	0x3e16339a	0.14668122
58	0x3d78fa38	0.060785502
59	0xbc685c7b	-0.014182205
60	0x3dc82f3e	0.09774636
61	0xbce43812	-0.027858768
62	0x3c408afc	0.011751886
63	0x3defaeca	0.1170326
64	0x3d8d19f7	0.06889718
65	0x3d9c6027	0.07635527
66	0x3bbbb644	0.005728515
67	0xbbe95b31	-0.0071214666
68	0x3d82ea04	0.06392291
69	0x3dc27b09	0.09496123
70	0xbba77fd5	-0.0051116743
71	0xbd37a994	-0.044839457
72	0xbd70b28e	-0.058764033
73	0xbb883e18	-0.004157793
74	0x3d45daa6	0.048304223
75	0xbdd0be7a	-0.101925805
76	0x3beb292d	0.0071765394
77	0xbd2ce5b9	-0.042211268
78	0x3b812f47	0.0039424035
79	0xbd521c87	-0.051296737
80	0xbdcce4c8	-0.10004574
81	0xbdef36ea	-0.11680396
82	0xbd650eac	-0.055922195
83	0xbe2c925f	-0.16852711
84	0xbe0aa792	-0.13540486
85	0xbd4c9495	-0.049946386
86	0xbe379386	-0.1792737
87	0xbe039593	-0.12850027
88	0xbcb1e6cf	-0.021716503
89	0xbe1d418c	-0.15357035
90	0xbc2f6909	-0.010706195
91	0xbdc96d92	-0.09835352
92	0xbdf9c5c5	-0.12195925
93	0xbdb7543d	-0.08951614
94	0xbd6eb449	-0.058277402
95	0x3e0d3baf	0.13792299
96	0xbbd69c41	-0.0065493886
97	0xbdde2539	-0.108469434
98	0x38d6b992	0.0001023888
99	0xbdb1fedf	-0.08691191
100	0xbccffe7a	-0.025389899
101	0xbb610f83	-0.003434152
102	0xbcd33d11	-0.025785955
103	0xbc6e8815	-0.014558812
104	0xbdfb4fe6	-0.12271099
105	0x3cdfb03c	0.027305715
106	0x3dd48307	0.10376554
107	0xbd2e46ca	-0.04254798
108	0x3d089e07	0.03335383
109	0xbd92bcaf	-0.07164895
110	0xbd099b58	-0.033595413
111	0x3cd600b5	0.026123384
112	0xbd056387	-0.03256562
113	0x3c2bd30c	0.010487329
114	0x3df79216	0.120884106
115	0xbd86a772	-0.065749064
116	0xbd064153	-0.03277714
117	0x3d59a5bd	0.053136576
118	0xbda036b1	-0.078229316
119	0x3d3abc13	0.045589518
120	0xbd8069f7	-0.06270211
121	0xbdc80a46	-0.097675845
122	0x3d4c3483	0.049854767
123	0xbd82a9cb	-0.06380042
124	0xbdc022cd	-0.09381638
125	0x3d85bbf6	0.06529991
126	0x3dbab7dd	0.091171004
127	0x3e2aac6c	0.16667336
128	0x3e09296b	0.13394706
129	0x3daf99d1	0.0857426
130	0x3e29ccc0	0.16582012
131	0x3e2528d9	0.16128863
132	0x3e7e242e	0.24818489
133	0x3e5578cb	0.2084686
134	0x3e233647	0.15938674
135	0x3deb3a83	0.114857696
136	0x3e3122a4	0.1729837
137	0x3e4147cd	0.18875046
138	0x3e30f5fa	0.17281333
139	0x3d7754d8	0.060383648
140	0xbd5bcaad	-0.053660084
141	0x3db0fd5b	0.08642074
142	0x3e1bf156	0.15228781
143	0x3e60a53d	0.21938033
144	0xbd31d737	-0.043418135
145	0xbdf31df7	-0.1187095
146	0x3cd0687f	0.025440453
147	0x3c589a99	0.013220453
148	0x3d118879	0.03553054
149	0x3de989ac	0.11403212
150	0xbddefe0c	-0.10888299
151	0xbe0f4092	-0.13989475
152	0xbe1148fb	-0.14187996
153	0xbe00f6d2	-0.12594154
154	0xbe43ef35	-0.19134219
155	0xbd87763d	-0.06614349
156	0xbd937f82	-0.072020546
157	0xbd3bd1ff	-0.045854565
158	0x3ddbc8a2	0.10731627
159	0xbc323eb8	-0.010879211
160	0xbdbbe1fe	-0.09173964
161	0xbd873a1d	-0.06602881
162	0x3dcdbd08	0.100458205
163	0x3de29878	0.11064237
164	0x3e22d5de	0.15901896
165	0x3da7307b	0.08163544
166	0x3d7cc424	0.06171049
167	0xbc046ba5	-0.008082305
168	0xbd0e6882	-0.034767635
169	0x3da8e9f4	0.08247748
170	0x3e0fd601	0.1404648
171	0x3e14670e	0.14492437
172	0x3db44fa9	0.088042565
173	0xbd228bd7	-0.039684143
174	0x3dd668c0	0.10469198
175	0xbd9ba1f3	-0.07599249
176	0xbccd26e7	-0.025042964
177	0x3db4c017	0.08825701
178	0x3df8e9f6	0.121539995
179	0xbd073d86	-0.033017658
180	0x3d62c5a0	0.05536425
181	0xbd363132	-0.04448051
182	0x3d217146	0.039414667
183	0x3df85f2d	0.12127528
184	0xbcd910b4	-0.026497222
185	0x3d945b9d	0.07244036
186	0x3da341d7	0.07971542
187	0x3db82ab9	0.08992524
188	0x3e101b38	0.14072883
189	0x3b5209ee	0.0032049376
190	0x3d51440b	0.05109028
191	0x3e017e3a	0.12645808
192	0x3e1c64a0	0.1527276
193	0xbb875a95	-0.0041306713
194	0x3e086760	0.13320684
195	0x3e170507	0.14748012
196	0x3e1f22d5	0.15540631
197	0x3e09c53c	0.13454145
198	0x3d6e0156	0.058106743
199	0xbbbfa9b9	-0.00584909
200	0x3cc558a9	0.024090128
201	0x3db9b5ae	0.09067856
202	0x3e51b55c	0.2047934
203	0x3c5c398b	0.013441454
204	0x3c6cec6f	0.014460667
205	0xbced2315	-0.028947392
206	0x3a4c551c	0.00077946647
207	0x3cda97c2	0.026683692
208	0x3d9425d8	0.072337806
209	0xbe03d279	-0.12873258
210	0xbdb36eba	-0.08761354
211	0xbbc1de04	-0.005916359
212	0xbd2f458d	-0.04279094
213	0x3ce63396	0.02810077
214	0xbdca30f2	-0.09872617
215	0xbd8b91fc	-0.06814954
216	0xbd392c55	-0.045208294
217	0xbc8ee872	-0.017444823
218	0xbcd64bc3	-0.026159173
219	0xbd202131	-0.039094154
220	0xbe0fb527	-0.14033948
221	0xbe44d340	-0.1922121
222	0xbcce60a9	-0.025192576
223	0xbe1f5313	-0.15559034
224	0xbd867fcd	-0.06567345
225	0xbca00fb6	-0.019538742
226	0x3d7d4a7d	0.061838616
227	0xbc2df072	-0.010616409
228	0x3d4b1b98	0.049586862
229	0x3cfaa047	0.030594004
230	0x3e35dcc9	0.17760004
231	0x3dae67ae	0.08515869
232	0xbcaff81d	-0.021480614
233	0xbe17ad22	-0.14812139
234	0xbcbc06a2	-0.022952382
235	0xbe90e994	-0.28303206
236	0xbeb17d13	-0.34665737
237	0xbe592c60	-0.21208334
238	0xbe51529e	-0.20441672
239	0x3d266d5b	0.040631633
240	0xbd9130a8	-0.070893586
241	0x3cb50c91	0.022100719
242	0xbdd2a282	-0.10284902
243	0xbd784597	-0.06061324
244	0xbdc28a23	-0.09499004
245	0xbd9cfdba	-0.07665582
246	0x3dff6cbf	0.124719135
247	0x3d576661	0.05258787
248	0x3e351e58	0.17687356
249	0x3d881e60	0.066464186
250	0x3df5bc20	0.119987726
251	0x3dd4349c	0.10361597
252	0x3c12c39f	0.0089577725
253	0x3e3446e0	0.17605162
254	0xbdd662a0	-0.1046803
255	0x3e8994e0	0.26871395

conv1.bias f4 [6]
0	0xbd71a91d	-0.05899917
1	0xbc80d26a	-0.015725333
2	0xbe41c54b	-0.18922918
3	0x3db1cdaa	0.086818054
4	0xbc1a9128	-0.009434022
5	0x3d3b8c1d	0.04578792

conv2.weight f4 [16, 6, 5, 5]
0	0xbd190c4f	-0.037365254
1	0xbdef6ae8	-0.116903126
2	0xbe618008	-0.22021496
3	0xbe1e70c1	-0.154727
4	0xbdbc74c1	-0.092019565
5	0x3d19a031	0.037506286
6	0xbe2c9857	-0.16854988
7	0xbeabe144	-0.33570302
8	0xbd9426af	-0.07233941
9	0xbd742cd1	-0.059613053
10	0xbe18c7d1	-0.14919974
11	0xbdbee272	-0.09320535
12	0xbe7a47b9	-0.24441423
13	0xbcf9d250	-0.030495793
14	0x3d4cc59a	0.049993135
15	0x3d9e2797	0.07722395
16	0xbe5ee2f4	-0.21766263
17	0x3b9dad2d	0.004811904
18	0xbe308eb1	-0.17241932
19	0xbd9fed27	-0.07808905
20	0x3defdfe8	0.117126286
21	0x3e12cd65	0.14336164
22	0x3e1b18da	0.15146199
23	0x3ddaef30	0.10690153
24	0x3e5d7a50	0.2162869
25	0x3d0bf14a	0.034165658
26	0x3da7c6c2	0.08192207
27	0x3de31661	0.11088253
28	0xb843da96	-4.6695197e-05
29	0xbc678bb4	-0.014132429
30	0xbe198307	-0.14991389
31	0xbe570cdc	-0.21000999
32	0xbe1440db	-0.14477865
33	0xbe30e2ec	-0.17274064
34	0xbe84520f	-0.25843856
35	0xbe0cc846	-0.13748273
36	0xbe2317d7	-0.15927063
37	0xbe1cb3a7	-0.15302907
38	0xbe5e86b1	-0.21731068
39	0xbdae5ff8	-0.08514398
40	0xbe42d7f3	-0.1902769
41	0x3d7e8733	0.062140655
42	0xbc85295f	-0.016255079
43	0xbdad29cd	-0.084552385
44	0x3d948e23	0.07253673
45	0xbe86d0b4	-0.26331103
46	0xbe075355	-0.13215382
47	0xbd5d88cd	-0.05408554
48	0xbd8a9136	-0.06765978
49	0xbe5db041	-0.21649267
50	0x3dfad7d8	0.122482
51	0x3e1d8091	0.15381075
52	0x3e228e27	0.1587454
53	0x3e0febf0	0.14054847
54	0x3d553bcb	0.052058976
55	0x3dc7fc57	0.09764927
56	0x3da2b6f1	0.079450496
57	0x3ce62a88	0.028096452
58	0x3cef34e0	0.029200017
59	0x3ce8c0aa	0.028412182
60	0x3da50fd2	0.08059658
61	0x3cc1f159	0.023674654
62	0x3d1b5977	0.037927117
63	0xbc8c89ea	-0.017155606
64	0x3d8fec06	0.0702744
65	0x3cacd002	0.02109528
66	0xbd3f6180	-0.046723843
67	0xbe07c2cd	-0.13257904
68	0xbd40e7cb	-0.047096055
69	0x3bb01da1	0.005374626
70	0x3d94f2ea	0.07272895
71	0x3cb8bc9c	0.022550873
72	0xbd6a8772	-0.057258077
73	0x3d25ad5e	0.04044854
74	0xbd240d5b	-0.0400518
75	0x3d02c931	0.031930152
76	0x3e226ae2	0.15861085
77	0x3d582e63	0.052778613
78	0x3ddcb758	0.107771575
79	0xbdc04131	-0.09387434
80	0x3dbd49d6	0.09242599
81	0x3e999200	0.29994202
82	0x3e1e4586	0.15456209
83	0x3e62c847	0.22146712
84	0x3d20dd7e	0.03927373
85	0x3e6d82d5	0.2319444
86	0x3e20c318	0.15699422
87	0x3d61f9e2	0.055169947
88	0x3e5c68e1	0.21524383
89	0x3e25102f	0.16119455
90	0x3e1a4f5c	0.15069336
91	0x3c7992dc	0.015232768
92	0x3e1042ca	0.14087978
93	0x3e2c313e	0.1681566
94	0x3dbf31bd	0.09335659
95	0x3c4d84aa	0.012543837
96	0x3dca0dba	0.098658994
97	0x3e23d51f	0.15999268
98	0x3cc9bd5f	0.024626432
99	0xbdbcd27d	-0.09219835
100	0xbd82e6c0	-0.06391668
101	0x3d58a327	0.05288997
102	0x3b115b9a	0.0022179843
103	0xbd9d2d24	-0.076746255
104	0x3dd55a17	0.10417574
105	0x3cfe20ef	0.031021563
106	0xbe32f5f8	-0.17476642
107	0xbe2e7435	-0.17036517
108	0xbd4ab606	-0.049489997
109	0xbcffd395	-0.03122882
110	0xbdc64138	-0.09680408
111	0x3dbe4f7b	0.092925034
112	0xbdd98d33	-0.10622635
113	0xbe6c7b51	-0.23093916
114	0x3df0154b	0.11722811
115	0xbd5a57b6	-0.053306304
116	0xbd5e9a69	-0.054346476
117	0x3cfaf8f3	0.030636286
118	0x3e2b9c19	0.16758765
119	0xbdb8d244	-0.0902448
120	0x3e00d63a	0.12581721
121	0xbc9f3d93	-0.01943854
122	0x3d484437	0.04889318
123	0xbdab1750	-0.08354056
124	0x3d531f82	0.05154372
125	0x3da087f5	0.07838432
126	0xbe90ccbd	-0.28281203
127	0xbdb24acd	-0.08705673
128	0xbdef4dba	-0.11684747
129	0xbdfe3bc3	-0.124137424
130	0x3d8872ac	0.06662497
131	0xbd317c04	-0.04333116
132	0xbc9e921a	-0.019356776
133	0xbe9fc013	-0.31201228
134	0x3cca07cf	0.024661927
135	0xbe0563ab	-0.13026302
136	0x3da23221	0.079197176
137	0xbca439b3	-0.020047044
138	0xbd20af02	-0.0392294
139	0xbd50e72e	-0.05100172
140	0xbc4295c7	-0.01187653
141	0xbda8e53c	-0.08246848
142	0xbd409a7a	-0.04702232
143	0x3e070395	0.1318496
144	0xbe02e399	-0.12782134
145	0x3da6a709	0.08137328
146	0x3d1fb30a	0.038989104
147	0x3d5b6f9e	0.053573243
148	0xbdfe5813	-0.124191426
149	0x3d2a510b	0.041581195
150	0x3d85c654	0.06531969
151	0x3d802ded	0.0625876
152	0xbd332752	-0.04373867
153	0x3d495c97	0.049160566
154	0x3e35413f	0.1770067
155	0xbc50a079	-0.012733572
156	0xbcaf83b4	-0.021425106
157	0x3db20ee2	0.08694245
158	0x3d2e9cbb	0.04262994
159	0x3d771acf	0.0603283
160	0xbce3d210	-0.027810127
161	0x3c40b682	0.011762263
162	0x3d921299	0.071324535
163	0x3d5214f9	0.051289532
164	0x3d918954	0.071062714
165	0xbe84dc61	-0.25949386
166	0xbe6847e0	-0.22683668
167	0xbe877a8e	-0.2646069
168	0xbe025c94	-0.12730628
169	0xbd4a5d6d	-0.049405504
170	0xbe3f03d9	-0.18653812
171	0xbe36d552	-0.17854813
172	0xbe06a5eb	-0.1314923
173	0x3ca928d7	0.020649357
174	0xbcd53e79	-0.026030766
175	0xbd477a88	-0.04870084
176	0x3d8cc4b8	0.068734586
177	0xbad10c68	-0.0015949132
178	0xbcc1a215	-0.023636857
179	0x3c53dfc9	0.0129317725
180	0x3a76b059	0.0009410433
181	0xbd484078	-0.048889607
182	0xbd01c65d	-0.031683315
183	0x3d2730f6	0.040818177
184	0xbd545619	-0.05183992
185	0x3e1e166f	0.15438245
186	0x3e046a99	0.12931289
187	0x3def09dc	0.116718024
188	0x3e033c64	0.12816006
189	0x3de7ba6f	0.11314856
190	0xbd9e0ca8	-0.07717258
191	0xbd8d1af1	-0.06889904
192	0xbcec65d7	-0.028857155
193	0x3d82b9ef	0.0638312
194	0x3c8da625	0.017291138
195	0xbe2796e5	-0.16366155
196	0xbdf23ebb	-0.11828371
197	0xbdb9cdbf	-0.09072446
198	0xbdc3fbda	-0.09569521
199	0xbe0412f1	-0.1289785
200	0xbd289bf2	-0.041164346
201	0x3cc5a94b	0.024128577
202	0x3d7b7aee	0.06139653
203	0x3dbf9b58	0.09355801
204	0x3e4ffd09	0.20311369
205	0xbcbb0518	-0.022829577
206	0xbd1b5f95	-0.03793295
207	0x3d5221e2	0.051301844
208	0xbce3eb5a	-0.027822185
209	0x3e0af27a	0.1356906
210	0xbe7520d6	-0.23938307
211	0xbe5cc610	-0.2155993
212	0xbe25f664	-0.16207272
213	0xbe03fb21	-0.12888767
214	0xbd368abd	-0.044565905
215	0xbdbb4527	-0.09144049
216	0xbdcbbb01	-0.099477775
217	0x3d65ad8e	0.056073718
218	0x3d684dbc	0.05671476
219	0xbd6b9a1c	-0.057520017
220	0x3daa0d8b	0.08303364
221	0x3ded8f1c	0.115995616
222	0x3e4dfa88	0.20115101
223	0x3e190552	0.14943436
224	0x3d4d5a68	0.050135046
225	0x3d1fa629	0.038976822
226	0x3d019d69	0.03164426
227	0xbd56d73d	-0.05245136
228	0xbdccab8a	-0.09993656
229	0xbdc1632b	-0.09442743
230	0x3db93060	0.0904243
231	0x3db4fc97	0.0883724
232	0x3cfaeb04	0.030629642
233	0xbe06107f	-0.1309223
234	0xbe25923b	-0.16169064
235	0x3e0fac1c	0.14030498
236	0x3d72a0f3	0.059235524
237	0x3b85f046	0.0040874807
238	0xbd3bf235	-0.045885283
239	0xbe041aac	-0.129008
240	0x3e2f1563	0.17098002
241	0x3eaf0d31	0.34189752
242	0x3ea6292f	0.32453296
243	0x3e887f66	0.26659697
244	0x3e582f84	0.21111876
245	0xbe1eea63	-0.15519099
246	0xbdfcddb4	-0.12346974
247	0xbe5c6953	-0.21524553
248	0xbe576805	-0.21035774
249	0xbe463114	-0.1935466
250	0x3d2504ee	0.040287904
251	0x3dde9d15	0.10869805
252	0xbc11cca9	-0.008898892
253	0x3af41689	0.0018622439
254	0xbd514504	-0.05109121
255	0x3c9af9c4	0.018917926

conv2.bias f4 [16]
0	0x3dd78adb	0.105245315
1	0xbcff9e6d	-0.031203473
2	0xbe2d5eed	-0.16930743
3	0xbdeac1f5	-0.114627756
4	0xbdace59f	-0.08442234
5	0x3dc149b5	0.094378866
6	0xbd8ffc1f	-0.0703051
7	0xbdc3cc23	-0.0956042
8	0x3ef3dfc4	0.47631657
9	0xbdcdc509	-0.10047347
10	0x3c3d51ae	0.0115551185
11	0x3d67249a	0.05643139
12	0xbd73bd47	-0.05950668
13	0xbdf24198	-0.11828917
14	0x3cb23011	0.021751435
15	0x3f0a2d70	0.5397558

fc1.weight f4 [256, 400]
0	0xbe279771	-0.16366364
1	0xbd59be3d	-0.05315994
2	0xbd5a3f4b	-0.053283017
3	0xbd8e1d63	-0.06939199
4	0xbe360ea2	-0.1777902
5	0xbe018fc7	-0.12652503
6	0x3dbf6458	0.09345311
7	0x3e9f7bc3	0.3114911
8	0x3df6def1	0.120542414
9	0xbe15d757	-0.14632927
10	0xbe256497	-0.16151653
11	0x3e8bd01d	0.27307215
12	0x3ed568c6	0.41681498
13	0x3e36b675	0.1784304
14	0xbe58cc45	-0.21171673
15	0xbe1feb04	-0.15616995
16	0x3e713c82	0.23558238
17	0x3ea50452	0.3222986
18	0x3a80ddb3	0.0009831697
19	0xbea84687	-0.32866308
20	0xbe014eaa	-0.12627664
21	0x3dc61983	0.09672835
22	0x3d8a3801	0.06748963
23	0xbc88a509	-0.016680257
24	0xbe26fbeb	-0.16307037
25	0xbe34e065	-0.17663725
26	0xbe20f4d1	-0.1571839
27	0xbe7d51d4	-0.24738246
28	0xbe1ed549	-0.1551105
29	0xbe495cb7	-0.19664274
30	0xbd1f30bf	-0.038864847
31	0xbc7cf808	-0.015439995
32	0x3cd9d939	0.026592838
33	0x3cac66ef	0.021045176
34	0xbcefaae8	-0.0292563
35	0x3ddad08a	0.10684307
36	0x3ca047e1	0.019565525
37	0xbd2e7aca	-0.04259757
38	0xbd15d22f	-0.0365774
39	0x3d7d79c7	0.061883714
40	0x3e447a6b	0.19187324
41	0xbd160d54	-0.036633804
42	0xbe3450a3	-0.17608885
43	0xbdc7264e	-0.09724103
44	0x3dd3cf9a	0.10342331
45	0x3ddb45dd	0.10706685
46	0xbe3fdd0a	-0.18736663
47	0xbe2d9777	-0.1695231
48	0xbe3e343b	-0.18574612
49	0x3c31e226	0.010857141
50	0x3e59fb89	0.2128736
51	0xbd3c90e5	-0.04603662
52	0x3d40eddb	0.047101837
53	0x3ce835b5	0.028345922
54	0xbc4c7138	-0.012478165
55	0xb9901195	-0.0002747892
56	0x3df1cc80	0.118065834
57	0x3e0ff39d	0.14057775
58	0x3dce47eb	0.10072311
59	0x3d4e1410	0.0503121
60	0xbe2018ac	-0.15634412
61	0x3d1984fe	0.037480347
62	0x3dfe5d8e	0.12420188
63	0x3d808f4e	0.06277333
64	0x3de44b39	0.1114716
65	0xbc128ff9	-0.008945459
66	0x3dedc725	0.116102494
67	0x3c454adf	0.012041776
68	0x3da78d63	0.08181264
69	0x3e81efe2	0.2537833
70	0x3bedf97e	0.007262408
71	0x3d8d5b45	0.06902174
72	0xbdfe8d41	-0.12429286
73	0xbc8b346a	-0.016992766
74	0x3e59e75d	0.21279664
75	0x3cd32647	0.025775088
76	0x3c814e13	0.015784299
77	0x3c9e1d3a	0.019301046
78	0xbc0a6ec7	-0.008449263
79	0x3c3b68b3	0.011438536
80	0xbcc9ce1b	-0.024634412
81	0xbd248e7b	-0.040174942
82	0x3c7ab76d	0.015302521
83	0xbd125642	-0.035726793
84	0xbd18a573	-0.03726716
85	0x3cffb2aa	0.031213123
86	0xbb7b2080	-0.0038318932
87	0x3d0c5c9d	0.03426801
88	0xbcf28633	-0.029605007
89	0x3c9eb5ca	0.019373793
90	0xbc1b43e7	-0.009476638
91	0x3c2284d3	0.009919363
92	0xbced671a	-0.028979827
93	0x3ca60087	0.020263923
94	0xbccc70d0	-0.024956137
95	0x3ac04833	0.0014669955
96	0xbc46abe7	-0.012125946
97	0xbcda7ab0	-0.02666983
98	0xbc008287	-0.00784362
99	0x3cc6e390	0.024278432
100	0xbcbc8633	-0.02301321
101	0xbbd5019c	-0.006500436
102	0x3cbcf2d3	0.023065006
103	0xbd4446f2	-0.04791922
104	0xbd3cbb3f	-0.04607701
105	0xbbfce0e7	-0.00771724
106	0x3c1311db	0.008976425
107	0x3c85dff7	0.016342146
108	0x3a83ad9a	0.0010046244
109	0x3d19b00f	0.03752142
110	0x3c9d2eac	0.019187294
111	0x3cdae780	0.026721716
112	0xbd019d06	-0.03164389
113	0x3d1a7bfb	0.037715893
114	0x3cc5922f	0.024117557
115	0xbbe764cd	-0.007061577
116	0xbd34545a	-0.044025756
117	0xbcc861d7	-0.024460716
118	0xbc8e33b3	-0.017358636
119	0x3d06d180	0.03291464
120	0xbc7d2cba	-0.015452558
121	0x3d42af00	0.047530174
122	0xbd66acdd	-0.0563172
123	0xbd1226bf	-0.035681482
124	0x3c186aed	0.009302837
125	0x3d125191	0.03572232
126	0xbdbaf56d	-0.091288425
127	0xbd59639f	-0.05307352
128	0x3d13c7ed	0.036079336
129	0x3d41692d	0.047219444
130	0xbdccb285	-0.099949874
131	0xbd56fc47	-0.052486684
132	0x3cca64cb	0.024706265
133	0x3d86ebc4	0.065879375
134	0x3d37faf0	0.044917047
135	0xbe4cfa49	-0.20017351
136	0xbe48dfc2	-0.19616607
137	0xbdeca771	-0.115553744
138	0xbdb8d9a6	-0.09025888
139	0xbde3485f	-0.11097788
140	0xbdf57535	-0.11985246
141	0xbe54e4b5	-0.2079037
142	0xbe21f773	-0.1581705
143	0xbe7e0158	-0.248052
144	0xbe5de700	-0.21670151
145	0xbcac4eb5	-0.021033624
146	0xbdbf3c7d	-0.09337709
147	0xbd9dab75	-0.076987185
148	0x3c7f2f98	0.015575312
149	0xbe4571c3	-0.19281678
150	0xbe8d75e6	-0.27629012
151	0xbeb650d2	-0.35608536
152	0xbec9764e	-0.39348072
153	0x3ccd6c33	0.025076007
154	0x3e6c073f	0.23049639
155	0xbda69a95	-0.08134953
156	0xbdcfc205	-0.10144428
157	0xbe1b95a7	-0.15193807
158	0x3dea396d	0.11436734
159	0x3e5d4df0	0.21611762
160	0xbdaf2342	-0.08551647
161	0x3e0c49f6	0.13700089
162	0xbc1028e7	-0.008798814
163	0x3ddc1a27	0.10747176
164	0x3dcd0866	0.100113675
165	0xbdc2c695	-0.09510533
166	0x3d89a38c	0.06720647
167	0xbcc7663c	-0.024340741
168	0x3d00cffe	0.031448357
169	0x3d7088ca	0.058724202
170	0x3e2021ee	0.15637943
171	0x3e0a367d	0.13497348
172	0x3c949af0	0.018140286
173	0x3de1f2dc	0.1103265
174	0x3a8baba2	0.0010656009
175	0xbe615b58	-0.22007501
176	0xbdad2eba	-0.08456178
177	0x3d0ab47c	0.03386353
178	0xbdb5f565	-0.08884696
179	0xbd950ff0	-0.072784305
180	0xbe52c1c8	-0.20581734
181	0xbd8a2d25	-0.06746892
182	0xbda944e4	-0.08265093
183	0xbd08ef31	-0.033431236
184	0xbe0c9679	-0.13729276
185	0xbe274dd5	-0.16338284
186	0xbe4916bf	-0.19637583
187	0xbe88eead	-0.26744595
188	0xbeda4c90	-0.42636538
189	0xbe682371	-0.2266977
190	0xbdb112ce	-0.08646165
191	0xbec74369	-0.38918617
192	0xbeca8819	-0.3955696
193	0xbf0361c3	-0.5132105
194	0xbe4f278b	-0.20229928
195	0x3d3700cc	0.044678494
196	0xbe01f21d	-0.12690015
197	0xbdc3e948	-0.09565979
198	0xbe6a8a4e	-0.22904322
199	0xbd8208a1	-0.06349302
200	0xbe841b1c	-0.25801933
201	0xbe628650	-0.22121549
202	0xbdf99ad7	-0.121877365
203	0xbe620339	-0.22071542
204	0xbe8552ce	-0.26039737
205	0xbe6d1569	-0.23152699
206	0xbe39abdd	-0.18131967
207	0x3d4bba1e	0.049738042
208	0xbcb59433	-0.022165393
209	0xbe53d968	-0.20688403
210	0x3e028421	0.12745716
211	0x3e177238	0.14789665
212	0x3eca244a	0.3948081
213	0x3e12ce25	0.1433645
214	0xbe10cfb1	-0.14141728
215	0x3dd499dd	0.103809096
216	0x3e3997a5	0.18124254
217	0x3ed4d02c	0.41565073
218	0x3d658b4e	0.056041054
219	0xbeb9e2ea	-0.36305934
220	0xbe3e3e53	-0.18578462
221	0x3e5e6218	0.21717107
222	0x3dee68a1	0.1164105
223	0xbe67dd37	-0.2264298
224	0xbec3d26d	-0.3824648
225	0x3d29d09b	0.041458707
226	0x3c663da7	0.014052785
227	0xbbef34f3	-0.007300013
228	0xbc9d04ba	-0.019167293
229	0x3c9b45d7	0.0189542
230	0x3b7e0ecd	0.0038766146
231	0x3c18e07a	0.009330863
232	0xbc5c66f3	-0.013452279
233	0x3d3737db	0.044731002
234	0x3cb3fe30	0.021971792
235	0x3c84ad97	0.016196055
236	0x3c33d65a	0.010976398
237	0x3cc70bb3	0.02429757
238	0xbd3cb648	-0.046072274
239	0xbd30d02b	-0.043167274
240	0x3d58d34d	0.052935887
241	0xbbb08edc	-0.005388124
242	0x3cd3bbe7	0.025846435
243	0xbb42cd80	-0.0029724538
244	0xbcecacc3	-0.028890973
245	0xbcdaa2e7	-0.026689006
246	0xbd2fcfa7	-0.042922642
247	0x3c1e7e07	0.009673602
248	0xba47499a	-0.0007602215
249	0xbd3794db	-0.044819694
250	0x3e1395e2	0.14412645
251	0x3d2f7e97	0.042845335
252	0x3da630d6	0.081147835
253	0x3dc732d5	0.09726492
254	0x3cad3e53	0.021147883
255	0xbdc4cfb8	-0.09609932

fc1.bias f4 [256]
0	0xbdb1a775	-0.08674518
1	0xbe4360b8	-0.19079864
2	0xbdf23fbb	-0.11828562
3	0xbe26219e	-0.16223761
4	0x3e865566	0.2623703
5	0xbd7d4bfe	-0.06184005
6	0xbda7ad7a	-0.08187385
7	0x3e1be1b7	0.15222822
8	0xbda0bf6a	-0.07849009
9	0xbe40aeee	-0.1881673
10	0xbcf5ee98	-0.030020997
11	0x3ca2b7e2	0.019863073
12	0xbe26b6ea	-0.16280714
13	0x3c670eca	0.014102647
14	0x3e1b345e	0.15156695
15	0x3e60c1b7	0.21948896
16	0xbcab4fde	-0.020912107
17	0xbdae8a9f	-0.085225336
18	0xbde56165	-0.11200217
19	0xbe62205d	-0.22082658
20	0x3b3a7b47	0.0028454827
21	0x3e93336a	0.28750163
22	0x3e2c630b	0.16834657
23	0xbdbb4109	-0.09143264
24	0x3e0a71c0	0.13519955
25	0xbd951c93	-0.07280841
26	0x3d0a434a	0.033755578
27	0x3d88c831	0.066788085
28	0x3dfbf326	0.12302236
29	0x3e0b22fc	0.13587564
30	0xbb772960	-0.003771387
31	0xbca85755	-0.020549456
32	0xbd6c796d	-0.05773299
33	0xbbefc476	-0.007317121
34	0xbd8b5756	-0.068037674
35	0x3d882164	0.06646994
36	0x3f05f31e	0.5232409
37	0x3ecabbcb	0.395964
38	0xbd3e47ae	-0.046455078
39	0xbc442e90	-0.011973992
40	0x3e814b70	0.25252867
41	0xbd5da54c	-0.054112718
42	0x3ea88139	0.3291109
43	0x3eab34b0	0.33438635
44	0x3e68610a	0.22693267
45	0x3aac59c9	0.0013149317
46	0x3c9bf818	0.019039199
47	0x3b26c3cc	0.0025446294
48	0x3ee50cba	0.44736272
49	0xbcd2d25e	-0.025735077
50	0x3e4c45c4	0.19948488
51	0x3e05f646	0.13082227
52	0x3e94e501	0.29080966
53	0xbc851dda	-0.016249586
54	0x3eb99086	0.36243075
55	0xbbd1a46d	-0.006397775
56	0xbcb3732e	-0.021905508
57	0xbc8891d9	-0.016671108
58	0xbd181647	-0.03713062
59	0x3e5be4bf	0.21473978
60	0x3da3aa12	0.07991423
61	0xbdb9a238	-0.09064144
62	0x3da27c61	0.0793388
63	0x3e31ec06	0.17375192
64	0xb9874ea7	-0.00025807807
65	0xbc8e2a7e	-0.017354246
66	0xbda7f90d	-0.082017995
67	0xbd0add06	-0.03390219
68	0xbe318f2a	-0.17339769
69	0x3e2ca424	0.1685949
70	0xbd8214af	-0.06351601
71	0xbdb3b1c7	-0.08774143
72	0xbcb54cb5	-0.022131303
73	0x3e160c05	0.14653023
74	0x3e9025b7	0.28153774
75	0x3e265e70	0.16246963
76	0x3cedf377	0.029046757
77	0xbd92811a	-0.071535304
78	0xbd821ca3	-0.06353118
79	0xbb5d612b	-0.003377984
80	0x3b927e63	0.004470633
81	0xbce58871	-0.028019162
82	0xbcd12f82	-0.025535349
83	0x3e88f3a3	0.2674838
84	0x3e11b263	0.14228205
85	0xbd10e7b7	-0.03537723
86	0xbcc585f3	-0.024111724
87	0xbd7965f8	-0.06088826
88	0xbd2f89b8	-0.04285595
89	0x3e693d5b	0.22777312
90	0x3e8eb7fe	0.2787475
91	0x3d0ca1f9	0.034334157
92	0x3cd832bb	0.026391378
93	0x3eb164c7	0.346472
94	0x3c8c95a1	0.017161192
95	0xbda3f62b	-0.08005937
96	0x3e5a1ff9	0.21301259
97	0x3caac36a	0.020845134
98	0x3dc84f4a	0.09780748
99	0x3e4890fd	0.19586559
100	0xbd6b3228	-0.05742088
101	0xbb244295	-0.00250641
102	0xbde0f911	-0.10985006
103	0xbb85922c	-0.004076263
104	0xbcc2c6ba	-0.0237764
105	0xbe610f7c	-0.21978563
106	0x3ec213d5	0.37905756
107	0x3de670e6	0.112520024
108	0xbe03f3f0	-0.12886024
109	0xbb9da2a1	-0.0048106466
110	0xbc35b33b	-0.011090095
111	0x3e0e36c5	0.1388808
112	0x3d0116d4	0.03151591
113	0xbd7bf8e8	-0.061516672
114	0x3c443cf7	0.011977426
115	0x3e981e16	0.29710454
116	0xbd9ba605	-0.07600025
117	0x3d04d088	0.032425433
118	0x3e83a093	0.25708446
119	0x3e7004be	0.23439309
120	0xbd51b3ed	-0.05119698
121	0x3b7a835d	0.0038225271
122	0xbd3160eb	-0.04330532
123	0xbd118ff7	-0.035537686
124	0x3c35cf9b	0.01109686
125	0xbda0cb58	-0.07851285
126	0x3d5a81ba	0.053346373
127	0xbd8a3ec3	-0.06750252
128	0xbd7d86ac	-0.06189601
129	0xbd7846b7	-0.060614314
130	0xbc9d3de7	-0.019194556
131	0x3e56424e	0.2092373
132	0x3ed8d51b	0.42350087
133	0xbbd7e1f1	-0.0065882136
134	0xbcc7739c	-0.024347119
135	0x3bafbab1	0.0053628315
136	0x3e14217b	0.14465897
137	0xbe23ac6c	-0.15983742
138	0x3ea22f74	0.3167683
139	0xbdcf11cf	-0.101108186
140	0x3db0c57c	0.08631417
141	0x3e196b78	0.14982402
142	0xbd09dbc0	-0.033656836
143	0x3df32899	0.11872978
144	0x3b29ac84	0.002589018
145	0x3e7e85e6	0.24855766
146	0xbdf85954	-0.12126413
147	0x3ea8b8bf	0.3295345
148	0xbd9004b7	-0.07032149
149	0xbcd904da	-0.026491571
150	0x3d42afaa	0.047530808
151	0x3eadf2f4	0.3397442
152	0xbce1e5fe	-0.02757549
153	0x3caaeddb	0.020865371
154	0x3ac3b956	0.0014932554
155	0x3e8f33e5	0.2796928
156	0xbd1b95f6	-0.03798481
157	0xbe5b512b	-0.21417682
158	0x3e45d082	0.1931782
159	0xbb61f636	-0.0034479029
160	0x3e33bc2b	0.17552249
161	0x3ebfeabb	0.37483773
162	0x3c112943	0.008859935
163	0x3e26ff8c	0.16308421
164	0x3ed21ceb	0.41037688
165	0xbcd6e6cf	-0.026233105
166	0x3ccecd07	0.025244249
167	0xbcaafb4b	-0.020871779
168	0xbe332dbc	-0.17497915
169	0x3dfdff90	0.1240226
170	0xbccbc84a	-0.024875779
171	0x3eac3d02	0.33640295
172	0x3e8c07c3	0.27349672
173	0xbd7e459f	-0.062078115
174	0x3d188a14	0.037241057
175	0x3de5b3ce	0.11215936
176	0xbe3e9a61	-0.18613578
177	0x3ded340a	0.11582191
178	0xbcd9004f	-0.026489405
179	0xbde3d88c	-0.111252874
180	0x3b9922ab	0.004673322
181	0x3e882c56	0.26596326
182	0x3e6228ca	0.22085872
183	0x3e25d26c	0.16193551
184	0x3d2398c2	0.039940603
185	0xbd689dd6	-0.05679115
186	0xbb3c8499	-0.0028765558
187	0xbd738e9b	-0.05946217
188	0xbd1033e3	-0.035205733
189	0x3eaa21d5	0.33228937
190	0xbbba6447	-0.0056882235
191	0x3ec6e147	0.38843748
192	0x3e6aeef6	0.22942719
193	0x3d24cd93	0.040235113
194	0x3efafff3	0.490234
195	0xbc6e6660	-0.014550775
196	0x3c280748	0.010255642
197	0x3d8ebe20	0.06969857
198	0x3e0cd8c1	0.1375456
199	0x3ea53d52	0.32273346
200	0x3d4fe069	0.050751124
201	0x3e77b32f	0.24189447
202	0x3e83d166	0.25745696
203	0x3dbfbdef	0.09362399
204	0xbd53efda	-0.051742412
205	0x3e315320	0.17316866
206	0xbd119238	-0.035539836
207	0x3c82ae5e	0.015952285
208	0x3d87e2c3	0.06635048
209	0x3e9eb70b	0.30999026
210	0xbd1e711a	-0.03868208
211	0xbc0b0cf0	-0.008486971
212	0x3bf31159	0.0074178395
213	0xbd22406e	-0.039612226
214	0xbe1d4496	-0.15358195
215	0x3e9929c7	0.29914686
216	0x398222d5	0.00024821484
217	0x3e99a06c	0.30005205
218	0x3d874894	0.0660564
219	0xbd5ea288	-0.05435422
220	0xbd4aa0ac	-0.049469635
221	0x3ee6e7de	0.45098776
222	0x3df1192e	0.11772381
223	0x3cae2396	0.021257203
224	0x3e9078cb	0.28217158
225	0xbd69ec92	-0.057110377
226	0x3e2478e8	0.16061747
227	0xbd8979e6	-0.067127034
228	0xbcffb47a	-0.031213988
229	0x3e75c11c	0.23999447
230	0xbd4879cf	-0.04894429
231	0x3e39f450	0.18159604
232	0x3e2334d6	0.15938124
233	0x3da42e59	0.080166526
234	0xbbc57037	-0.00602534
235	0x3d2ea895	0.04264124
236	0x3e5a5ebc	0.21325201
237	0xbd9cf00a	-0.07662971
238	0xbdd9584c	-0.106125444
239	0xbd9b801f	-0.075927965
240	0x3cb4f83f	0.02209103
241	0xbda7bef0	-0.08190715
242	0x3e0f7d4b	0.14012639
243	0xbc1f43d0	-0.009720758
244	0xbdc8fc36	-0.098137304
245	0x3ce56e12	0.028006587
246	0x3e6cba1b	0.23117869
247	0x3cd3d320	0.025857508
248	0x3d0434fe	0.0322771
249	0x3d46a973	0.048501443
250	0x3c556c85	0.013026361
251	0xbc973166	-0.018456172
252	0x3e9a05fd	0.30082694
253	0x3da98fff	0.08279418
254	0x3e6b67d8	0.22988832
255	0xbd98404a	-0.07434137

fc2.weight f4 [10, 256]
0	0x3e3e157d	0.18562885
1	0xbd19ee54	-0.037580803
2	0x3beedbc0	0.00728938
3	0x3db629eb	0.08894714
4	0xbe01f1b7	-0.12689863
5	0x3c3a86e1	0.011384697
6	0xbda58f1a	-0.08083935
7	0x3e82ee77	0.2557256
8	0xbce51bbe	-0.02796733
9	0x3e038f36	0.128476
10	0x3c3a116d	0.011356694
11	0xbd2c2717	-0.042029466
12	0x3d07fcf7	0.03320023
13	0x3cc90329	0.02453764
14	0x3d99091f	0.07472443
15	0x3dabb01d	0.083832
16	0xbbad2835	-0.005284334
17	0xbced8bd6	-0.028997343
18	0xbdcc194e	-0.09965764
19	0x3de8600b	0.11346444
20	0xbd0c1e7f	-0.03420877
21	0xbc06e610	-0.008233562
22	0xbd9c809c	-0.07641718
23	0xbdd3107a	-0.10305877
24	0xbe4a9b35	-0.1978577
25	0xbd3efde4	-0.046628848
26	0x3bba048d	0.005676812
27	0xbe1abb47	-0.15110503
28	0xbdddcf69	-0.10830576
29	0x3d8297cb	0.063766085
30	0xbc9e4dbf	-0.019324182
31	0x3d69ef40	0.057112932
32	0xbd9fdfb5	-0.078063406
33	0x3c9c3e6c	0.019072734
34	0x3b375b3a	0.002797796
35	0x3d1dd365	0.03853168
36	0xbe7a8796	-0.24465784
37	0xbe54ddbf	-0.20787714
38	0xbe485271	-0.19562699
39	0xbd24cec4	-0.04023625
40	0xbe52e402	-0.2059479
41	0x3d3f21c3	0.046663057
42	0x3c7b0e10	0.015323177
43	0xbc8aec8a	-0.016958494
44	0xbe604f29	-0.21905197
45	0xbc322089	-0.010872015
46	0x3cb27c20	0.021787703
47	0x3d910600	0.070812225
48	0xbedfaed7	-0.4368808
49	0xbd04bd72	-0.03240723
50	0x3dd1afdc	0.10238621
51	0xbe30f62b	-0.17281406
52	0xbdc86267	-0.09784394
53	0xbc2a9092	-0.010410445
54	0x3dbe20fd	0.09283636
55	0xbd8e9827	-0.069626145
56	0x3cba6ff8	0.022758469
57	0xbbd443c1	-0.0064778035
58	0xb9855500	-0.00025431067
59	0xbd34fb1d	-0.044184793
60	0x3cfd45a8	0.030917004
61	0x3d953eb9	0.07287354
62	0xbe660351	-0.22462203
63	0x3d5ab543	0.05339552
64	0x3c94d55e	0.018168148
65	0xbd0068fe	-0.03135013
66	0x3b65dd79	0.0035074635
67	0xbbf2b3d8	-0.007406693
68	0x3e1786cf	0.14797519
69	0xbdcaeb38	-0.09908146
70	0xbca47275	-0.020074109
71	0xbdcb70c5	-0.099336185
72	0xbce850f4	-0.028358914
73	0x3dde031c	0.10840437
74	0x3da5b0a0	0.08090329
75	0x3e019304	0.12653738
76	0x3c61f360	0.013790935
77	0xbd133187	-0.035935905
78	0x3d07edfc	0.033185944
79	0xbce65ce9	-0.028120475
80	0xbbdbf91e	-0.0067130467
81	0x3deae21a	0.11468907
82	0x3a9a34c1	0.001176499
83	0x3e3df083	0.18548779
84	0x3e1c8894	0.15286475
85	0x3d4a4998	0.04938659
86	0xbd87cc6d	-0.06630788
87	0x3e21b217	0.15790592
88	0x3e2a703c	0.16644377
89	0x3d61d6ce	0.055136494
90	0xbd857271	-0.065159686
91	0xbd587443	-0.05284525
92	0xbd4d9cec	-0.05019848
93	0x3e41e6bc	0.18935674
94	0xbca83cfb	-0.02053689
95	0xbe324dd1	-0.17412497
96	0xbbbfa3ec	-0.0058483984
97	0x3d32dabe	0.04366564
98	0x3d9da654	0.0769774
99	0xbe29e83f	-0.16592501
100	0x3d3fc3da	0.046817638
101	0x3d921ba8	0.07134181
102	0x3c22eafe	0.009943722
103	0xbcbf6575	-0.023363808
104	0x3d0e3ccb	0.034725945
105	0x3c903e72	0.017607901
106	0xbea6ffa4	-0.32616913
107	0x3de08ece	0.10964738
108	0x3db425ff	0.0879631
109	0x3c413f47	0.011794872
110	0x3c473dbe	0.012160717
111	0x3d88eb06	0.06685452
112	0xbce65aad	-0.02811941
113	0x3e337bc2	0.17527679
114	0xbb2110a0	-0.002457656
115	0xbc5b2200	-0.013374805
116	0xbd167d2b	-0.036740463
117	0xbd4a1d50	-0.04934436
118	0xbe483e04	-0.19554907
119	0xbd9a4df1	-0.075343974
120	0x3d09a682	0.03360606
121	0x3d190569	0.037358675
122	0xbd7e3d9a	-0.062070467
123	0x3aa6f7ed	0.0012738683
124	0xbd689c9d	-0.056789983
125	0x3ccf8cae	0.025335636
126	0xbc9425c9	-0.018084424
127	0xbcdf6188	-0.027268186
128	0xbd8cfcba	-0.06884141
129	0xbdba47fa	-0.0909576
130	0x3c578da2	0.0131563265
131	0x3d244c90	0.04011208
132	0xbe9072a0	-0.28212452
133	0xbd3bc609	-0.045843158
134	0xbc0d644d	-0.008629871
135	0xbd4684d7	-0.04846653
136	0xbd854b0e	-0.06508456
137	0x3d5751db	0.052568298
138	0xbe2c3d28	-0.16820204
139	0x3d9759bd	0.07390163
140	0x3dd1b2da	0.10239191
141	0xbdb6db27	-0.08928519
142	0xbd7e07fc	-0.062019333
143	0xbd797b9a	-0.06090889
144	0xbe0478f8	-0.12936771
145	0xbe6e3e30	-0.2326591
146	0xbe31e98c	-0.17374247
147	0xbe1a125d	-0.15046068
148	0x3d460773	0.048346948
149	0x3bcf0f24	0.0063189436
150	0x3c6c5441	0.014424385
151	0xbe87c6d5	-0.26518884
152	0x3d82e0a5	0.06390504
153	0x3d252d89	0.04032663
154	0x3d8ac772	0.067763224
155	0x3e81ec8e	0.2537579
156	0x3e12e43d	0.14344878
157	0x3d5ca577	0.053868737
158	0x3e5cafa9	0.21551384
159	0x3ced3374	0.028955199
160	0xbe92d228	-0.28675961
161	0xbe37816b	-0.17920463
162	0x3bcb1025	0.006196993
163	0xbc992e69	-0.018698888
164	0xbdaad4b8	-0.08341354
165	0xbd147d12	-0.03625209
166	0xbd8111e1	-0.06302238
167	0xbcc5a356	-0.024125736
168	0xbd8e08a6	-0.06935243
169	0x3e042086	0.12903032
170	0x3e023839	0.1271676
171	0xbdf4c4fa	-0.11951633
172	0x3e0b716a	0.13617483
173	0x3e629192	0.22125843
174	0x3d942b06	0.072347686
175	0x3c8f383d	0.017482871
176	0xbc6b0b96	-0.014346024
177	0x3d79aa43	0.06095339
178	0x3d809895	0.06279103
179	0xbc84a484	-0.016191728
180	0xbd4418e2	-0.047875293
181	0x3e06e3de	0.13172862
182	0x3d6b9ae7	0.057520773
183	0x3db659f3	0.08903875
184	0xbd5a8bd6	-0.053356014
185	0xbca24051	-0.01980606
186	0xbd24e0a2	-0.04025329
187	0xbd44199e	-0.047875993
188	0x3cc926a6	0.024554562
189	0x3dd29b3b	0.10283514
190	0xbce30c3a	-0.027715791
191	0xbe0fed60	-0.14055395
192	0xbd9dd4c1	-0.07706595
193	0x3d3cc428	0.046085507
194	0xbe5869af	-0.21134065
195	0x3cf3a44a	0.029741425
196	0xbd900d99	-0.070338435
197	0x3d2814ab	0.041035336
198	0x3d38d806	0.04512789
199	0x3c960850	0.01831451
200	0x3c3073ca	0.010769794
201	0xbed26cf2	-0.41098744
202	0xbe75d681	-0.24007608
203	0x3d92f4de	0.07175611
204	0x3d800b01	0.06252099
205	0x3d5e9230	0.054338634
206	0xbdfdc789	-0.12391574
207	0xbc0a2930	-0.008432671
208	0x3d760d8a	0.060071506
209	0xbe91d312	-0.28481346
210	0x3cafccbb	0.021459928
211	0xbd06ce18	-0.03291139
212	0xbd9b77d0	-0.07591212
213	0xbd039b19	-0.032130335
214	0x3e15b36d	0.14619227
215	0x3e27879b	0.16360323
216	0xbd30586e	-0.043053083
217	0xbc0fef70	-0.008785114
218	0xbe9862ae	-0.29762787
219	0x3ccc8a66	0.024968337
220	0x3dc6affa	0.097015336
221	0x3dc17a97	0.0944721
222	0xbd759744	-0.05995871
223	0xbb8192cc	-0.003954267
224	0xbe4f5821	-0.20248462
225	0x3d534787	0.051581886
226	0xbe81b2b4	-0.25331652
227	0xbd01bbe9	-0.031673346
228	0xbc935636	-0.017985445
229	0x3dd446e6	0.10365085
230	0x3deb013f	0.11474847
231	0xbdfada89	-0.122487135
232	0x3d938ca1	0.07204557
233	0xbad13c63	-0.0015963431
234	0xbdbb6333	-0.0914978
235	0x3dcf5b6f	0.101248614
236	0x3d5e47ff	0.05426788
237	0xbb612c37	-0.003435863
238	0x3d943cf7	0.072381906
239	0x3b6b7b9b	0.003593183
240	0xbd72c9c2	-0.059274442
241	0xbde57199	-0.11203308
242	0x3dc46d23	0.09591129
243	0xbda9725c	-0.082737654
244	0x3bb9ed23	0.005674021
245	0x3d11265a	0.035436966
246	0xbdb22ab5	-0.08699552
247	0x3c1a3c0b	0.009413729
248	0xbd071a38	-0.03298399
249	0x3db36a21	0.08760477
250	0x3d24da44	0.040247217
251	0xbd5cb712	-0.053885527
252	0xbe3a7b92	-0.18211201
253	0x3e036f46	0.12835416
254	0x3e3d7528	0.18501723
255	0x3c8791d3	0.016549027

fc2.bias f4 [10]
0	0xbebd458c	-0.36967123
1	0xbe01a761	-0.12661506
2	0xbe44bfda	-0.1921381
3	0x3e5b3afc	0.2140922
4	0x3edcd61a	0.43132097
5	0xbe0eb3ac	-0.13935727
6	0x3c67cb87	0.014147646
7	0xbdef325b	-0.116795264
8	0x3e2b985c	0.16757339
9	0x3dd183ce	0.10230218
